att_Based_Conv_LSTM.pt (torch, 2275 bytes, 3 tensors)

att.fc1.weight f4 [1, 3, 1, 1]
0	0xbde590dc	-0.1120927
1	0xbba4dcdd	-0.005031212
2	0x3c51fc59	0.012816512

att.fc2.weight f4 [3, 1, 1, 1]
0	0x3f941625	1.1569258
1	0xbeceaea0	-0.40367603
2	0xbf1ecdce	-0.62032783

convL.cell_list.0.conv.weight f4 [4, 4, 3, 3]
0	0xbf229817	-0.6351332
1	0xbf4ae2f7	-0.7925257
2	0xbf0ccea6	-0.5500282
3	0xbf49b3f6	-0.78790224
4	0xbf42bb1b	-0.7606675
5	0xbf4133a2	-0.7546941
6	0xbe595a0b	-0.21225755
7	0xbf19668e	-0.5992211
8	0xbeda5e75	-0.4265019
9	0xbf58ec1f	-0.8473529
10	0xbf8e9b91	-1.1141225
11	0xbf2e90cd	-0.681897
12	0xbf578588	-0.8418813
13	0xbf824250	-1.0176487
14	0xbf6d2ba8	-0.9264474
15	0xbf0e98c6	-0.55701864
16	0xbf49a6d7	-0.787702
17	0xbf3aa9a9	-0.7291513
18	0xbf63c535	-0.8897279
19	0xbf9a0897	-1.2033871
20	0xbf5265a8	-0.82186365
21	0xbf538728	-0.8262811
22	0xbfabbe73	-1.3417495
23	0xbf85a04b	-1.0439543
24	0xbe99931e	-0.29995054
25	0xbf3f03b3	-0.7461502
26	0xbf332dcf	-0.69991773
27	0xbe1ef92d	-0.1552474
28	0xbe8fe03e	-0.2810077
29	0xbdba5c9a	-0.090996936
30	0xbeb35e60	-0.3503294
31	0xbda90caa	-0.082543686
32	0xbe7af509	-0.24507536
33	0xbe1e70a1	-0.15472652
34	0xbe76ea26	-0.24112758
35	0xbd2239c0	-0.039605856
36	0x3ee6737f	0.45009992
37	0x3f056efa	0.5212246
38	0x3ea504cb	0.3223022
39	0x3eb4efc1	0.35339168
40	0x3dd13b07	0.10216337
41	0x3ea89fe4	0.32934487
42	0x3e8f9c2c	0.28048837
43	0x3e95e286	0.29274386
44	0x3ecd86d0	0.40141916
45	0x3ef4a6c4	0.47783482
46	0x3f04aafa	0.5182339
47	0x3e9bb8c9	0.30414417
48	0x3ea145e0	0.31498623
49	0x3e2482b5	0.16065486
50	0x3f213d75	0.629844
51	0x3e4a80ac	0.19775647
52	0x3f193089	0.59839684
53	0x3e753155	0.239446
54	0x3ed1e154	0.40992224
55	0x3eac469e	0.33647627
56	0x3f1d511b	0.6145188
57	0x3f1abb4f	0.6044206
58	0x3e19280f	0.14956687
59	0x3ec462cc	0.38356626
60	0x3ed24d78	0.4107473
61	0x3f040134	0.51564336
62	0x3f02b9b1	0.5106459
63	0xbeb72d0c	-0.35776556
64	0xbe796faa	-0.24359003
65	0xbe110b44	-0.14164454
66	0xbe704c2f	-0.23466562
67	0xbdbedabb	-0.09319063
68	0xbe9fce4d	-0.31212083
69	0xbe840c88	-0.2579081
70	0xbe492cd3	-0.19646005
71	0xbe715b50	-0.23569989
72	0xbe2836d4	-0.16427165
73	0xbd065f81	-0.032805923
74	0xbe033c62	-0.12816003
75	0x3cdac5af	0.026705591
76	0xbebcba79	-0.36861017
77	0x3c134546	0.008988684
78	0xbe14dc4b	-0.1453716
79	0xbe22aa06	-0.15885171
80	0xbe13c03d	-0.14428802
81	0x3d1dc28f	0.038515624
82	0xbe4db74d	-0.20089455
83	0x3c9a5263	0.018838113
84	0x3caf51aa	0.021401245
85	0xbeef0900	-0.46686554
86	0x3d8a0184	0.0673857
87	0x3d48c2b3	0.049013805
88	0x3c5c88cb	0.013460348
89	0xbda28956	-0.07936351
90	0xbd426071	-0.047455255
91	0xbe96ed8d	-0.29478112
92	0xbd7eaac9	-0.062174592
93	0xbe026713	-0.12734632
94	0xbf395bbf	-0.7240562
95	0xbe6a189b	-0.22860949
96	0xbd1138d2	-0.03545458
97	0x3cbdc32a	0.02316435
98	0x3d889562	0.066691175
99	0x3dca1bb1	0.09868563
100	0x3d536866	0.051613234
101	0x3d89c167	0.06726342
102	0xbca4970e	-0.02009156
103	0x3e3d96ec	0.18514603
104	0x3cd6b992	0.026211534
105	0xbc45ce92	-0.012073176
106	0x3dde6fdd	0.1086118
107	0xbd4cdf1a	-0.050017454
108	0x3e4da567	0.20082627
109	0x3ede2415	0.43386903
110	0x3e71bd95	0.23607476
111	0x3ec00eb9	0.37511232
112	0x3f42b434	0.7605622
113	0x3ea2ae91	0.3177381
114	0x3e3ba704	0.1832543
115	0x3e355255	0.17707188
116	0x3d46e9be	0.048562758
117	0x3eb3e45d	0.35135165
118	0x3f3c0cfc	0.7345731
119	0x3eb5188a	0.35370284
120	0x3f048870	0.5177069
121	0x3f73f794	0.9529965
122	0x3ef16459	0.47146872
123	0x3db9d5c6	0.09073977
124	0x3efc6f8c	0.49303854
125	0x3ecfda6a	0.40596324
126	0x3f18b6ef	0.59654135
127	0x3f3ab4dc	0.7293222
128	0x3eacb10d	0.3372883
129	0x3eaf1426	0.3419506
130	0x3f6f6f61	0.93529326
131	0x3f13808d	0.5761803
132	0x3d19f186	0.03758385
133	0x3eb0621d	0.34449854
134	0x3e9af797	0.3026702
135	0x3ea1882e	0.3154921
136	0x3e95fc5f	0.29294106
137	0x3ee2bcfc	0.4428481
138	0x3ed69d46	0.41916865
139	0x3ea54c66	0.3228485
140	0x3ea2d4ee	0.31803077
141	0x3ed0b17e	0.40760416
142	0x3ec12800	0.3772583
143	0x3e9c59d3	0.3053728
