Conv_LSTM.pt (torch, 1515 bytes, 1 tensors)

cell_list.0.conv.weight f4 [4, 4, 3, 3]
00000000: efbc 67be 5bfc 1abf c3cd d7be cb97 a7bd
00000010: 1d16 fabe 7348 27bf 4c92 6abc 5893 16bd
00000020: c224 76be e798 0ebe 39f8 01bf 7a2f 42be
00000030: 1a49 c8bc 6855 ebbe a046 15bf 59be 083e
00000040: 498d a6bc 9561 f6bd 1b29 52be 87b2 32bf
00000050: ac1f 38be aa16 17be aa2b 07bf 026e bfbe
00000060: c42c c4bc b0f4 70bd cc83 9bbd 8ced b63d
00000070: 24cd bb3e edb9 023e e328 bb3d ed23 da3e
00000080: 703d b93e 4135 933e 4b59 a63e 6372 163d
00000090: 79df 213d 57c9 fd3e cafd 8e3e f6a8 b13d
000000a0: 06c6 003e a0a8 973e f310 84bc d904 713e
000000b0: 7ee2 313e 4da6 3d3e e7a5 e43e 29cd 893e
000000c0: ec5c 4a3e 9463 6b3e 65a0 b33e 16a1 57bb
000000d0: a30c 9c3e ff4a 993c 20ce 473e 779a 3f3e
000000e0: c0b4 da3d b111 883e 8ea7 833e 9850 de3e
000000f0: 4022 d13b d098 493e 40b3 283e 2b50 9fbe
00000100: 9153 f7bd e8ee 9cbe 8742 c4be 8484 75be
00000110: 4b4d 87be f7f6 ddbe 5a3c 9cbe 5c1b 99be
00000120: c457 76bc 2c27 0fbe 76a1 a8bb 9341 6b3d
00000130: 0f61 d9be 1b92 e63c 3335 05be 50a5 c23c
00000140: cda6 5abd 1b00 d63d 6236 f1bd 677f 7c3c
00000150: 6214 fd3c 1d47 e5be 75f4 8a3d 0fe6 ea3d
00000160: 7fb2 a2bd c955 5d3d 07e7 d9bd bdaf 2e3e
00000170: 8935 2cbd 41e1 27be af43 d8be 0685 5fbd
00000180: 56d1 f03b b397 6bbd 6cbe 01bd 6ff8 c83d
00000190: e4cf 823d 6b1a af3c b39f 89bb ab42 d53d
000001a0: 06df edbc 9cf6 843d 1c20 6bbc fad5 b53d
000001b0: eaab 223e cf6f 2a3f 0f61 b33d 33c0 3cbd
000001c0: 4e66 6a3f 188d 9a3e 474a 3dbd f36d 5ebd
000001d0: b60a 08be a7ed 553c 6628 1e3f 40b7 763e
000001e0: b593 4f3e c69a 563f 94b9 cc3e 484b 4ebc
000001f0: cb99 6abd 4454 013e 6ca2 3e3e 2722 f43e
00000200: de30 823d 5a57 763d 9abc 3f3f 4ee9 3c3e
00000210: 2452 bcbd 3095 5f3e aac1 093e 3f72 853e
00000220: 4f03 f93e b505 a43e 0f73 ca3e 96f8 e53e
00000230: 859d 8f3e 784f af3e 33a7 023f 7f31 d43e
-0.22630666 -0.60541314 -0.4214917 -0.08183249 -0.48844996 -0.65344924 -0.014317106 -0.03676161
-0.2403746 -0.13925515 -0.5076938 -0.18963423 -0.02444892 -0.45963597 -0.5831089 0.13353862
-0.020331042 -0.12030331 -0.20523493 -0.6980366 -0.17980832 -0.1475474 -0.52801 -0.37388617
-0.023947127 -0.058827102 -0.07593498 0.08932027 0.36679947 0.12766238 0.09138658 0.42605534
0.36179686 0.28751567 0.3249 0.03673018 0.03951976 0.49567673 0.27928 0.08674805
0.1257554 0.29620838 -0.016121363 0.23537005 0.17371556 0.1852047 0.44657823 0.26914337
0.1976201 0.22987205 0.3508331 -0.0032902411 0.3047839 0.018712519 0.19512224 0.18711267
0.106790066 0.26575997 0.25713772 0.43420863 0.0063822567 0.196872 0.16474628 -0.3111585
-0.12076486 -0.3065102 -0.38332006 -0.23976332 -0.26426157 -0.43352482 -0.30514795 -0.29903686
-0.015035573 -0.13979787 -0.005146201 0.057435583 -0.42456862 0.02814584 -0.13008575 0.023760468
-0.05338173 0.10449239 -0.11777951 0.015411234 0.030893508 -0.44780818 0.06784908 0.114696614
-0.07944202 0.05403689 -0.10639768 0.17059226 -0.042043243 -0.16394521 -0.42239138 -0.05457022
0.0073491735 -0.05751772 -0.03167574 0.0981301 0.06387308 0.021374902 -0.004199946 0.104131065
-0.02903701 0.064923495 -0.014350917 0.088787034 0.15885893 0.66576856 0.08758747 -0.046081733
0.91562355 0.3018577 -0.046213415 -0.054304074 -0.13285336 0.013057149 0.61780393 0.24093342
0.2027119 0.83829916 0.39985335 -0.012591191 -0.057275575 0.12629801 0.18616647 0.47682306
0.06356977 0.0601419 0.7489716 0.18448374 -0.091953546 0.21834254 0.13452783 0.26063725
0.48635337 0.32035604 0.39540908 0.4491622 0.28049865 0.34240317 0.51036376 0.41444013
